…
W1101 21:00:54.659781 4505187776 deprecation_wrapper.py:119] From /Library/Frameworks/Python.framework/Versions/3.7/lib/python3.7/site-packages/keras/backend/tensorflow_backend.py:3976: The name tf.nn.max_pool is deprecated. Please use tf.nn.max_pool2d instead.

W1101 21:00:54.928488 4505187776 deprecation_wrapper.py:119] From /Library/Frameworks/Python.framework/Versions/3.7/lib/python3.7/site-packages/keras/optimizers.py:790: The name tf.train.Optimizer is deprecated. Please use tf.compat.v1.train.Optimizer instead.

_________________________________________________________________
Layer (type)                 Output Shape              Param #   
=================================================================
conv2d_1 (Conv2D)            (None, 64, 64, 32)        320       
_________________________________________________________________
batch_normalization_1 (Batch (None, 64, 64, 32)        128       
_________________________________________________________________
max_pooling2d_1 (MaxPooling2 (None, 32, 32, 32)        0         
_________________________________________________________________
conv2d_2 (Conv2D)            (None, 32, 32, 64)        18496     
_________________________________________________________________
batch_normalization_2 (Batch (None, 32, 32, 64)        256       
_________________________________________________________________
max_pooling2d_2 (MaxPooling2 (None, 16, 16, 64)        0         
_________________________________________________________________
dense_1 (Dense)              (None, 16, 16, 1024)      66560     
_________________________________________________________________
batch_normalization_3 (Batch (None, 16, 16, 1024)      4096      
_________________________________________________________________
dense_2 (Dense)              (None, 16, 16, 1024)      1049600   
_________________________________________________________________
batch_normalization_4 (Batch (None, 16, 16, 1024)      4096      
_________________________________________________________________
flatten_1 (Flatten)          (None, 262144)            0         
_________________________________________________________________
dense_3 (Dense)              (None, 2)                 524290    
=================================================================
Total params: 1,667,842
Trainable params: 1,663,554
Non-trainable params: 4,288
_________________________________________________________________
W1101 21:00:55.060607 4505187776 deprecation.py:323] From /Library/Frameworks/Python.framework/Versions/3.7/lib/python3.7/site-packages/tensorflow/python/ops/math_grad.py:1250: add_dispatch_support.<locals>.wrapper (from tensorflow.python.ops.array_ops) is deprecated and will be removed in a future version.
…
