…
W1101 20:31:19.753352 4388804032 deprecation.py:323] From /Library/Frameworks/Python.framework/Versions/3.7/lib/python3.7/site-packages/tensorflow/python/ops/nn_impl.py:180: add_dispatch_support.<locals>.wrapper (from tensorflow.python.ops.array_ops) is deprecated and will be removed in a future version.
Instructions for updating:
Use tf.where in 2.0, which has the same broadcast rule as np.where
_________________________________________________________________
Layer (type)                 Output Shape              Param #   
=================================================================
conv2d_1 (Conv2D)            (None, 16, 16, 32)        320       
_________________________________________________________________
batch_normalization_1 (Batch (None, 16, 16, 32)        128       
_________________________________________________________________
max_pooling2d_1 (MaxPooling2 (None, 8, 8, 32)          0         
_________________________________________________________________
conv2d_2 (Conv2D)            (None, 8, 8, 64)          18496     
_________________________________________________________________
batch_normalization_2 (Batch (None, 8, 8, 64)          256       
_________________________________________________________________
max_pooling2d_2 (MaxPooling2 (None, 4, 4, 64)          0         
_________________________________________________________________
dense_1 (Dense)              (None, 4, 4, 1024)        66560     
_________________________________________________________________
batch_normalization_3 (Batch (None, 4, 4, 1024)        4096      
_________________________________________________________________
dense_2 (Dense)              (None, 4, 4, 1024)        1049600   
_________________________________________________________________
batch_normalization_4 (Batch (None, 4, 4, 1024)        4096      
_________________________________________________________________
flatten_1 (Flatten)          (None, 16384)             0         
_________________________________________________________________
dense_3 (Dense)              (None, 2)                 32770     
=================================================================
Total params: 1,176,322
Trainable params: 1,172,034
Non-trainable params: 4,288
_________________________________________________________________
Train on 2539 samples, validate on 283 samples
Traceback (most recent call last):
  File "adversary_16.py", line 109, in <module>
    validation_data=(X_test, y_gender_test),
  File "/Library/Frameworks/Python.framework/Versions/3.7/lib/python3.7/site-packages/keras/engine/training.py", line 1039, in fit
…
